…
:"https://localhost:8080/"},"id":"Nfq9DhS74nha","executionInfo":{"status":"ok","timestamp":1659277492112,"user_tz":-180,"elapsed":1188,"user":{"displayName":"Yassir B.","userId":"16892896183514751590"}},"outputId":"81d9ede3-28a8-4fd2-be79-0da039211a74"},"execution_count":28,"outputs":[{"output_type":"stream","name":"stdout","text":["Model: \"sequential\"\n","_________________________________________________________________\n"," Layer (type)                Output Shape              Param #   \n","=================================================================\n"," conv2d (Conv2D)             (None, 198, 198, 32)      896       \n","                                                                 \n"," max_pooling2d (MaxPooling2D  (None, 99, 99, 32)       0         \n"," )                                                               \n","                                                                 \n"," conv2d_1 (Conv2D)           (None, 97, 97, 64)        18496     \n","                                                                 \n"," max_pooling2d_1 (MaxPooling  (None, 48, 48, 64)       0         \n"," 2D)                                                             \n","                                                                 \n"," conv2d_2 (Conv2D)           (None, 46, 46, 128)       73856     \n","                                                                 \n"," max_pooling2d_2 (MaxPooling  (None, 23, 23, 128)      0         \n"," 2D)                                                             \n","                                                                 \n"," flatten (Flatten)           (None, 67712)             0         \n","                                                                 \n"," dense (Dense)               (None, 64)                4333632   \n","                                                                 \n"," dense_1 (Dense)             (None, 1)                 65        \n","                                                                 \n","=================================================================\n","Total params: 4,426,945\n","Trainable params: 4,426,945\n","Non-trainable params: 0\n","_________________________________________________________________\n"]}]},{"cell_type":"code","source":["model.compile(loss=\"binary_crossentropy\", optimizer=\
…
